…
Colocations handled automatically by placer.
WARNING:tensorflow:From /home/ICT2000/jondras/anaconda3/lib/python3.7/site-packages/keras/backend/tensorflow_backend.py:3445: calling dropout (from tensorflow.python.ops.nn_ops) with keep_prob is deprecated and will be removed in a future version.
Instructions for updating:
Please use `rate` instead of `keep_prob`. Rate should be set to `rate = 1 - keep_prob`.
_________________________________________________________________
Layer (type)                 Output Shape              Param #   
=================================================================
masking_1 (Masking)          (None, 32, 12)            0         
_________________________________________________________________
batch_normalization_1 (Batch (None, 32, 12)            48        
_________________________________________________________________
gru_1 (GRU)                  (None, 32, 32)            4320      
_________________________________________________________________
gru_2 (GRU)                  (None, 32, 32)            6240      
_________________________________________________________________
time_distributed_1 (TimeDist (None, 32, 1)             33        
_________________________________________________________________
batch_normalization_2 (Batch (None, 32, 1)             4         
_________________________________________________________________
time_distributed_2 (TimeDist (None, 32, 1)             0         
=================================================================
Total params: 10,645
Trainable params: 10,619
Non-trainable params: 26
_________________________________________________________________
None
INFO:
	0fold_BN3_32-32u_32ws_12f
	 batch_size=128
	 n_epochs=100
WARNING:tensorflow:From /home/ICT2000/jondras/anaconda3/lib/python3.7/site-packages/tensorflow/python/ops/math_ops.py:3066: to_int32 (from tensorflow.python.ops.math_ops) is deprecated and will be removed in a future version.
…
